bbox_custom/trained_model.pth (torch, 490959 bytes, 10 tensors)

conv1.weight f4 [16, 3, 3, 3]
000000 ff 16 27 be 9c d4 2c be eb d3 fd bb 18 c1 c8 3d
       -0.16317366 -0.16877979 -0.00774621 0.09802455
000010 70 0b 22 3d d5 68 c1 3d 5f f0 e7 bc ec 33 41 be
       0.03956169 0.09443823 -0.02831286 -0.18867463
000020 ff 35 c0 bc 70 ef 2a be 4f 90 e5 3d 94 c8 f9 bd
       -0.023463247 -0.166929 0.11209165 -0.1219646
000030 86 17 06 be 16 e1 d5 3c 56 17 8c bd d8 30 7a bd
       -0.13094911 0.026108306 -0.068403885 -0.061081737
000040 6c 12 ad bd 39 60 5f bd 75 d8 2a 3d d0 8b 36 3e
       -0.08450779 -0.054535124 0.041710336 0.17826772
000050 53 7a d5 3d 9b ca 8e bd 6b f4 f0 3c 02 6f df bd
       0.10423722 -0.06972238 0.029413423 -0.10909845
000060 ce 09 85 3d 4d 3f 3c 3d 96 45 33 bd ee 8e c5 bd
       0.06496011 0.045958806 -0.043767534 -0.09646402
000070 30 4e 86 3c 4e b3 ed 3c 99 28 d1 bc 94 04 d7 3d
       0.016394705 0.029016163 -0.025532054 0.1049892
000080 ac d0 0b 3e b7 c4 b6 bd 16 0d 9e bd a5 31 e7 3c
       0.13653821 -0.08924239 -0.0771734 0.028221915
000090 8d db 38 be 1e 5e 36 3e 7d 4f b8 bd ad 1e 07 3d
       -0.18052502 0.1780934 -0.08999536 0.03298824
0000a0 e8 0b 2a 3e 17 ba 91 bc bd 5a 19 3e 01 5c 2e 3e
       0.16606104 -0.01778893 0.1497602 0.17027284
0000b0 68 a2 39 be 96 ad 25 3e 5c f5 37 be 29 98 94 bd
       -0.1812836 0.16179499 -0.17964691 -0.07255585
0000c0 c2 24 99 bd f3 64 8a 3d 78 ee 12 be 21 47 1a 3e
       -0.07477714 0.06757536 -0.14348781 0.15066196
0000d0 5d 21 0f be 49 90 c4 3d d3 98 cc bd 80 fd 40 3e
       -0.13977571 0.09597833 -0.099900864 0.18846703
0000e0 7e c1 9c 3b 72 4a 4c bd 3e a2 b1 bd 03 08 60 bd
       0.0047838083 -0.049875684 -0.08673523 -0.05469514
0000f0 15 34 c6 bd f4 e6 02 be f0 d2 f4 bd 77 2c db 3d
       -0.096779026 -0.12783414 -0.11954296 0.1070184
000100 b5 ca 91 bd ed d7 3f be 63 15 f6 3d f4 e7 6e 3d
       -0.071187414 -0.18734713 0.12015798 0.058326676
000110 40 8d 2f bd 80 44 4c 3d 0a 77 24 3e bc 06 1a 3e
       -0.042859316 0.049870014 0.16061035 0.15041631
000120 39 ae 1d 3d 40 63 44 3e a3 16 42 be 4e e6 45 3b
       0.03849623 0.19178486 -0.18953948 0.0030197087
000130 b2 f7 c2 bd 2f c6 e1 3d 29 eb e7 bd 19 08 77 bc
       -0.095199004 0.11024129 -0.1132415 -0.015077614
000140 c4 42 ed bc e9 fa be 3c 45 ce 22 be 77 13 0e 3e
       -0.0289625 0.023313003 -0.15898998 0.13874613
000150 ce cc 07 bc 60 a7 d2 bd 60 12 34 3e 39 49 25 3d
       -0.008288575 -0.102858305 0.17585135 0.040353034
000160 bb ff 4c bd 4e c5 84 bc c8 3a 3b bd 7c 72 b7 3d
       -0.05004857 -0.016207363 -0.045710355 0.08957383
000170 38 5a 56 bd 5a 70 15 3e cc 81 15 3c 26 35 36 3e
       -0.052332133 0.1459364 0.009125184 0.17793712
000180 42 f9 99 bd a1 42 ff bd c0 c3 1f 3d ed aa b8 3d
       -0.07518245 -0.1246388 0.03900504 0.090169765
000190 30 59 41 bd 9b f3 08 3d 24 bb a1 bd d2 e8 41 3e
       -0.047204196 0.033435445 -0.07897022 0.1893647
0001a0 1f b5 d4 bd bb 45 05 3e e5 20 2f be d5 39 2b be
       -0.103861086 0.13014881 -0.17102392 -0.1672128
0001b0 fa 1e b9 3d 9f 6b 7e bd a2 e6 10 3e 5e 90 23 bd
       0.090391114 -0.062114354 0.1415048 -0.0399326
0001c0 d9 00 4d bd 63 42 27 3e db be 33 bd 2f fa 54 bd
       -0.050049637 0.16333918 -0.043883186 -0.051996406
0001d0 02 69 a5 3c 9a 99 37 be 57 78 38 be d4 6a 10 3d
       0.020191673 -0.17929688 -0.18014656 0.03525813
0001e0 43 e2 25 be a3 7a 43 be 1b 60 24 3e 26 e7 22 3e
       -0.16199593 -0.19089751 0.16052286 0.15908489
0001f0 cd b2 3e 3e db 49 f6 bd cb 79 25 be 1c 98 47 3b
       0.18622895 -0.120258056 -0.16159742 0.0030455654
000200 2d fd d4 3c dd 77 b7 3d 92 a3 1d 3e 07 77 47 3c
       0.02599963 0.08958409 0.15394428 0.012174374
000210 d6 28 6c 3d f0 17 e0 3d 52 dc 79 bc 1c 23 56 3d
       0.05765613 0.10942066 -0.015250282 0.052279577
000220 41 16 15 be 09 19 c7 bc d6 39 31 3e 0f 4f 15 3e
       -0.1455927 -0.02430393 0.17307219 0.1458094
000230 cf bb 14 bd 99 d2 26 be 00 30 c3 3d dc 83 28 3c
       -0.03631192 -0.16291274 0.0953064 0.010285344
000240 0e 48 0b be 56 33 e8 3c 04 f8 35 3e 9b 4f dc 3d
       -0.13601705 0.028344791 0.17770392 0.10757371
000250 8f c1 c2 bd f6 7e 00 be b6 09 c9 3d 48 ad ab 3d
       -0.095095746 -0.12548432 0.09816305 0.0838266
000260 57 15 9e 3d 97 6e 91 3d 69 db 1a 3d c8 e0 39 be
       0.07718914 0.071011715 0.037806902 -0.18152153
000270 ac b5 32 3c 54 17 ba 3d 91 c4 c2 3d de 30 c3 bd
       0.010907572 0.09086481 0.09510148 -0.09530805
000280 20 5b d0 3d 9d 33 87 bd 2d fb 14 be cd dd 0c be
       0.10173631 -0.06601641 -0.14548941 -0.13756485
000290 8e aa 26 be 19 67 65 3c 20 b4 fd 3c 80 ff 97 3d
       -0.16275999 0.014001631 0.03096968 0.0742178
0002a0 d5 9b de bd 7e 2f e1 bd 4d 8a e4 bd 37 ad 06 3e
       -0.10869566 -0.109953865 -0.11159191 0.13152014
0002b0 49 da 14 3d bc 19 8b 3d 94 c5 1f 3e dd 32 f0 3c
       0.036340985 0.06792018 0.15602714 0.029321129
0002c0 d5 7f 0f 3e bc 30 3a 3e fa 62 42 be 51 ca bf bd
       0.14013608 0.18182653 -0.18983069 -0.09364761
0002d0 f1 9a cc bd d9 64 39 be d7 ac 0f be 44 f4 af 3c
       -0.0999049 -0.18104877 -0.14030777 0.02147878
0002e0 9e 7d 62 3b af 25 a8 3d 2c 08 ee ba b0 03 02 be
       0.0034559737 0.082103126 -0.0018160394 -0.12696719
0002f0 52 cd 3d 3e 6e fe 57 bc a3 c2 ff bd e9 f4 5e bd
       0.18535355 -0.013183219 -0.12488296 -0.054432783
000300 b4 ac f3 3c 1d e5 26 3e 04 d4 a3 3d b1 b9 55 3d
       0.029745437 0.16298337 0.07999423 0.052179042
000310 ba 8a cc 3d 62 83 a6 3c df c6 d2 bd 5e 34 20 be
       0.099873975 0.02032632 -0.10291838 -0.15644976
000320 a2 b4 91 3d 9d da 1f be b9 da be 3d 98 2b cc 3c
       0.07114531 -0.15610738 0.09319062 0.02492313
000330 1a bc ea bd 03 e4 ec bd d1 58 d6 3d 65 98 30 bd
       -0.11461659 -0.11566927 0.10466159 -0.043114085
000340 aa ca 50 bd ef 0c 49 3d 84 c1 72 3d a7 76 7d bd
       -0.050974526 0.0490846 0.059266582 -0.061880734
000350 e6 1b c6 3d ae aa 9b 3d de 97 1b be 19 ac 43 3e
       0.0967329 0.07600914 -0.15194651 0.19108619
000360 44 06 36 bd a3 8d 1b bc 14 47 27 3e 03 c4 2f 3e
       -0.04443957 -0.009494218 0.16335708 0.17164616
000370 3b be a0 3c 75 bf 3e 3c 1d 7a 23 bd c3 40 40 3e
       0.019621959 0.011642327 -0.03991138 0.18774705
000380 76 55 34 3e 25 50 db bd 5f e6 0e be a0 19 41 3e
       0.17610726 -0.10708646 -0.13955067 0.18857431
000390 d2 35 03 bd ea 6d ff bd 98 1f 52 3d e4 10 20 3d
       -0.03203375 -0.12472136 0.05129966 0.03907861
0003a0 04 39 37 be e7 ae bc 3d 34 66 33 3d e4 8d d3 3c
       -0.17892843 0.092130475 0.04379864 0.025824495
0003b0 7d 1f 1f be 39 d3 1a 3d a2 21 35 3e 32 ae cd bd
       -0.15539356 0.037799094 0.17688611 -0.10042991
0003c0 4b f6 02 bc 70 e7 2d 3d af 2d e4 3c 02 be 04 be
       -0.007993291 0.042457044 0.027853815 -0.12963107
0003d0 8a 49 7d 3d 57 ee 82 bb 2c b4 16 be b9 56 24 3e
       0.06183771 -0.0039956975 -0.14717168 0.16048707
0003e0 1d 10 fa bd 4c 6d 2e be 6d 8d 43 3e ef 4b 3b 3e
       -0.122101046 -0.17033881 0.19096918 0.18290685
0003f0 a8 be 0f 3d f5 40 be bc 8f fc 3a bd d3 a7 e0 3c
       0.035093933 -0.023224333 -0.045651015 0.027423775

conv1.bias f4 [16]
000000 84 b3 db 3c af 9b 0f be 42 de 03 be c9 fc 11 3e
       0.026818998 -0.14024232 -0.12877753 0.14256586
000010 15 42 a5 3d 99 35 85 3d 23 65 01 be 79 76 e5 3d
       0.08069245 0.065043636 -0.12636237 0.112042375
000020 bc 32 00 3e bb 2d 67 3d 2a a1 df 3c e3 5d 1b 3e
       0.12519354 0.056440096 0.027298529 0.15172534
000030 79 40 f4 3d 27 64 20 bd ec 83 42 3e 51 65 08 be
       0.1192636 -0.039158013 0.18995637 -0.13319899

conv2.weight f4 [32, 16, 3, 3]
000000 69 df 1e 3d 49 39 9f bc 98 2c 85 3d a1 ab 2b 3d
       0.03878728 -0.019436495 0.06502646 0.041911725
000010 ce 1a 79 bd b0 2d a3 3d 0c 32 1f 3d d7 0f 68 3c
       -0.06081658 0.079676986 0.038866088 0.014163933
000020 7c 74 1f 3d 4b 3d 7a bd 80 d9 9d b7 73 f2 6b 3d
       0.038929448 -0.06109361 -1.881714e-05 0.057604264
000030 1c ad ca 3c 57 68 a9 bd 08 fa 3f 3c a9 9b 16 bd
       0.024740748 -0.08271854 0.011717327 -0.036769543
000040 1c a6 31 3d 40 d6 0b bd 97 73 8c bd b4 dc 3e 3d
       0.043371305 -0.03413987 -0.068579845 0.046597198
000050 25 53 ca bc 4f f0 9d bd f4 49 9f bc 56 fc 85 bd
       -0.02469785 -0.07711851 -0.019444443 -0.0654227
000060 a7 41 30 bd 2b 93 9e 3d 07 12 c7 bc ec ae 78 bc
       -0.04303136 0.07742914 -0.024300588 -0.015178423
000070 9f e1 b1 bc 20 eb 21 3d a4 a7 2c bc 4a f2 d5 3b
       -0.02171403 0.039530873 -0.0105380155 0.0065291272
000080 f2 5c 5b 3d f9 f5 8e bd 23 22 99 bd f0 89 9a 3d
       0.053555436 -0.06980509 -0.07477214 0.07545841
000090 a2 1c 91 bd 10 60 33 bc 62 fb d6 bc 66 49 72 bc
       -0.070855394 -0.010948196 -0.026242916 -0.014788007
0000a0 d0 ca 5b 3d bc c1 63 bd 63 46 ec 3c 71 4c cf bb
       0.053660214 -0.05560468 0.028842157 -0.006326251
0000b0 30 a0 5f 3d fe 6b 8a 3d 68 22 ac 3a 6b 12 8c 3b
       0.054596126 0.06758879 0.0013132812 0.0042746565
0000c0 eb e1 1f bd e9 67 98 bd 7b 68 8e bd 2f 9c ac bd
       -0.03903381 -0.07441694 -0.06953522 -0.08428227
0000d0 2d c5 90 3c e4 69 d7 3b cd 70 86 3d 60 e7 7b bd
       0.017672146 0.0065739024 0.06564484 -0.061499953
0000e0 52 05 59 bd be 43 92 bd d7 ac 7f 3d 62 9a f8 bc
       -0.05298359 -0.07141827 0.062420692 -0.030347053
0000f0 4f 6c 47 bc 26 93 99 3c 71 50 3e bd bc b0 eb bc
       -0.012171819 0.018746924 -0.046463434 -0.028770797
000100 63 13 8e bc 77 5d 24 bd 1f 20 34 bd 85 bf 7a bd
       -0.017343229 -0.040128198 -0.043975946 -0.061217804
000110 47 70 06 bd a9 68 5b 3c 3b 17 0f 3d e7 59 69 bd
       -0.03282192 0.013391652 0.034934264 -0.056970503
000120 99 ae b3 bc 2e c1 4b 3d 7a 57 8c bd f0 ff 08 bd
       -0.02193384 0.049744777 -0.06852622 -0.033447206
000130 e6 e1 1d 3d ba 2f a4 bb 7f 9d 7c 3d 79 e1 d7 bc
       0.03854551 -0.0050105723 0.061673637 -0.02635263
000140 07 7e 02 bd 78 77 2f 3d 2a 68 f3 bb 4d b6 ae bc
       -0.03185847 0.042838544 -0.007428189 -0.021327162
000150 77 76 b0 3b e0 a5 a3 3d 84 d3 b6 bb 5e 10 9c bd
       0.005385216 0.079906225 -0.005579414 -0.07620309
000160 59 ea 99 bd a4 c3 8a 3c ca 90 a6 3d 1d e0 ca 3c
       -0.075154014 0.016938992 0.08133085 0.024765069
000170 e1 0f 9f 3d 95 1e a3 bc 7d ce b5 bc e5 20 8d 3d
       0.077667005 -0.019912044 -0.022193188 0.0689104
000180 b3 03 59 3d 84 c4 b6 ba 55 45 aa 3c b8 eb 7a bd
       0.052982043 -0.0013944064 0.020785013 -0.061259955
000190 af 19 46 bd b3 22 b7 bc 96 91 14 bc 3c de 16 3d
       -0.048364338 -0.022355413 -0.0090679135 0.036833033
0001a0 a3 4d 8f bd 39 ea 79 bd 87 79 09 bd ed 98 90 bd
       -0.0699723 -0.061014388 -0.033563163 -0.07060418
0001b0 28 91 0f bd ac e9 f5 bc dd 15 29 3d 94 a4 1e bd
       -0.03505054 -0.03001865 0.041280616 -0.038731173
0001c0 f7 e1 b5 bc e9 9b 83 bd 01 69 1b bc 58 66 6d 3d
       -0.022202475 -0.06426222 -0.009485484 0.05795893
0001d0 56 6a 70 3d 19 e7 a8 3d f2 c8 43 3c b7 2e 94 bd
       0.05869516 0.082472034 0.011949765 -0.07235473
0001e0 8c 4b 23 3b 9f f0 2e bd fc cb 43 3d e3 8f a3 3d
       0.0024916856 -0.042709943 0.047801957 0.079864286
0001f0 89 91 87 3d 5f 0e 0f 3d 76 fb eb bc c2 2d 14 bd
       0.066195555 0.034925815 -0.02880643 -0.03617645
000200 5d 52 51 3d c0 44 04 bb 0b 1b 87 3d 84 fe 38 bd
       0.05110394 -0.002018258 0.06596955 -0.0451646
000210 a1 c7 41 bd 89 e3 04 3c 41 6f a7 bc 4d 07 4b bd
       -0.04730952 0.008110889 -0.020438792 -0.04956751
000220 d2 8a 2f bc 36 f9 43 3d 01 8e 07 bd 56 62 aa bd
       -0.01071425 0.047845088 -0.03309441 -0.08319537
000230 63 74 8c bd 4c 1d 3a 3d 96 0f 0d bc 75 80 90 bd
       -0.068581365 0.045438096 -0.008609673 -0.07055751
000240 92 1e 72 3c a6 b5 bb 3b 06 ac 62 bd f3 f3 46 bd
       0.014777796 0.0057284413 -0.055339836 -0.04857249
000250 6a 08 93 ba 9b 9e 80 bb 59 c7 04 bd 59 60 db 3c
       -0.0011217718 -0.0039251572 -0.032416675 0.02677934
000260 98 a8 51 bc fd 14 55 3d 16 69 8e ba 1e f6 04 3c
       -0.012796544 0.05202197 -0.0010865058 0.00811532
000270 9d 12 bf bc 79 d0 6d bd fb f5 8d 3b 5e d5 10 3c
       -0.023324305 -0.058060143 0.0043323017 0.008839933
000280 f8 a6 a7 3d 8d 64 9c 3d 5b 3c 61 3d 6d df 5f bc
       0.08186144 0.07636366 0.0549892 -0.013664109
000290 c9 ab f4 3c 8d 05 eb bc 3f 16 b6 3c bb c9 34 bd
       0.02986707 -0.02868917 0.022227405 -0.044137698
0002a0 3b 43 1d bd a0 b2 f4 3c 96 7e 96 3d 36 fd 40 bd
       -0.038394194 0.029870331 0.07348363 -0.04711648
0002b0 64 80 88 3d 35 2a 19 3d e1 7b 82 3d ed b9 b4 bc
       0.066651136 0.037393767 0.06371284 -0.022061313
0002c0 8c 28 71 bb a4 34 89 3d a5 c3 1a 3d 81 c7 54 bd
       -0.003679785 0.066994935 0.037784237 -0.051948074
0002d0 b3 65 10 3c 5b 9b bd bb 14 69 cf 3c 38 af 99 3d
       0.0088133095 -0.005786342 0.02531866 0.075041234
0002e0 b5 99 94 bd 09 2e 8b 3d 11 d5 21 bd 83 28 0d bd
       -0.0725588 0.0679589 -0.039509837 -0.034462463
0002f0 23 f4 5f 3d c1 fd 90 bd 71 cf c0 bb 76 6f 7c bd
       0.054676186 -0.0707965 -0.005884104 -0.061629735
000300 56 85 30 bd 63 a1 01 bd 66 d2 90 bd fd 46 8b bd
       -0.04309591 -0.03164805 -0.0707138 -0.06800649
000310 2e 2c 07 bd 64 e7 9b bd 76 87 12 3b a3 96 5b 3d
       -0.033001117 -0.07612494 0.0022358573 0.053610455
000320 b3 d6 6c bd 6c c5 a6 3d 4b ed 55 3d ee d5 55 bc
       -0.05782194 0.08143124 0.052228253 -0.013051493
000330 81 10 bd bc 48 a2 83 3d 51 8c 95 3d c9 52 92 3d
       -0.023079159 0.06427437 0.07302154 0.07144696
000340 9b 71 9f bb d9 f8 7e 3d c1 20 07 bd 19 5d 8f 3d
       -0.0048658377 0.06224904 -0.03299022 0.07000179
000350 e5 58 91 3d 5a 15 a0 3d 32 94 d6 bc f8 a1 8d 3d
       0.070970334 0.078165725 -0.026193712 0.06915659
000360 63 c6 75 bc 0b 36 56 3d 70 40 aa bd 91 21 a7 3d
       -0.015000912 0.052297633 -0.08313072 0.08160699
000370 55 66 5f 3d f8 f9 70 bc 16 25 9b ba 2e 61 0a bd
       0.05454095 -0.014708035 -0.0011836614 -0.033784084
000380 24 1a 53 bc b8 7c 8c bd ac 08 1c b9 d3 89 30 bd
       -0.01288465 -0.06859726 -0.0001488055 -0.04310019
000390 a7 4a ef bc 99 9a 35 bd 2d a7 a7 bd 3f e0 bd 3c
       -0.029210402 -0.04433689 -0.08186183 0.023178218
0003a0 2b 74 61 3d 53 33 45 3d 41 35 a8 bd 93 27 1a 3c
       0.055042427 0.04814465 -0.082132824 0.009408849
0003b0 65 90 86 3d 46 f6 18 bd c6 1f eb bb d9 fa 31 bd
       0.0657051 -0.03734424 -0.0071754185 -0.043452118
0003c0 be 8c 88 3d 56 54 8b bd f3 54 09 bd 03 25 19 3d
       0.066674694 -0.06803195 -0.03352828 0.037388813
0003d0 38 b5 68 bc 53 ed 61 3c 18 bc 69 3d 37 d3 99 bc
       -0.014203362 0.013789493 0.057064146 -0.018777473
0003e0 c2 f1 9c 3d ba a6 80 bd a4 79 68 bc fd bc 92 bd
       0.07663299 -0.062818006 -0.014189158 -0.07164953
0003f0 a5 af 92 3b 2a ed a9 bd be 98 37 bd aa 30 93 bd
       0.004476505 -0.082971886 -0.0448234 -0.07187016

conv2.bias f4 [32]
000000 ad 62 7c bd 75 17 83 3d a1 31 0a 3d fe c0 f0 bb
       -0.061617542 0.064009584 0.033738736 -0.007347225
000010 b7 01 fb bc 6d e0 55 bc 25 7e ac bd 18 5e de ba
       -0.030640466 -0.013053996 -0.08422498 -0.0016965298
000020 0e 64 53 bd b4 3e dd 3c e4 75 83 bd d8 9e d6 bb
       -0.05160909 0.027007438 -0.0641897 -0.0065496974
000030 11 07 9b 3d e9 26 1d 3c c9 61 b3 bb d3 62 81 3d
       0.07569707 0.009591796 -0.0054743034 0.06317677
000040 e1 68 8a 3c 8c 9e 9b bd 86 59 4f bd 2f 4a ce 3b
       0.016895713 -0.075986 -0.050622486 0.0062954645
000050 30 0d 2f 3b f8 e9 2e 3d 96 88 59 3d 84 6e d5 bc
       0.0026710741 0.0427036 0.053108774 -0.026053675
000060 fd e8 3a bd 00 38 96 bd 25 d8 87 3b 16 23 16 bd
       -0.04563235 -0.073349 0.0041456395 -0.036654554
000070 d7 70 83 bd bf 65 79 bc d2 b6 9c bd 88 a2 5b 3d
       -0.06418007 -0.015222012 -0.07652058 0.0536218

conv3.weight f4 [64, 32, 3, 3]
000000 6f bf 4c bd a3 fe 49 3d 1a 26 4e 3d 37 60 f6 3c
       -0.049987253 0.049315106 0.050329305 0.030075176
000010 7b 8b dd bc 6a 85 45 3d 68 53 37 bd cf c3 a6 bb
       -0.027044049 0.048222937 -0.044757277 -0.00508926
000020 39 64 49 3d 22 86 51 3d 97 15 5b bd a2 1a 0e 3d
       0.049167845 0.05115331 -0.053487387 0.034693368
000030 fc 74 33 3c 49 e9 64 bd 21 7e 35 3d a5 12 5d bb
       0.010953184 -0.05588654 0.04430974 -0.0033733037
000040 b5 aa 9a 3b ae 02 52 3d 59 a2 d9 3c da 00 46 3c
       0.004720057 0.051272087 0.026566671 0.012085164
000050 6e 09 35 3d 6a d0 f8 3b 3a bf d4 3c a6 31 82 3c
       0.044198446 0.0075932043 0.02597009 0.015892815
000060 75 84 96 3c cd ce 04 bd 13 57 2e 3d ac e7 64 3d
       0.018373707 -0.032423783 0.04256351 0.055885002
000070 77 89 19 3d ed f2 53 bd d7 59 c5 bc 1d 2e f5 3b
       0.037484612 -0.051745344 -0.02409069 0.007482304
000080 8e 4e a4 bc 8a 4a 62 3d a8 36 2e 3d ee 96 2a 3d
       -0.020056989 0.055246867 0.042532593 0.041647844
000090 97 2e 8d 3a 2a 81 8f bc 34 ed 45 3b 47 bf 38 bd
       0.0010771331 -0.017517645 0.0030201199 -0.04510429
0000a0 b1 8c 66 bd 32 b6 63 bd c6 b3 83 bc 1c 46 9b 3c
       -0.056286518 -0.055593677 -0.016076934 0.01895433
0000b0 7e 68 e6 3c 88 83 a0 39 42 22 73 bd 99 f6 22 bd
       0.028125998 0.00030615577 -0.059358843 -0.039785955
0000c0 64 3f 32 bd 86 68 39 bd 33 fb 4c bc ad 64 56 3d
       -0.043517485 -0.045265697 -0.012511062 0.052342106
0000d0 18 c1 38 3d fe 00 05 bb de 57 e2 3a 0c 61 eb 3b
       0.045106024 -0.002029478 0.0017268618 0.0071831997
0000e0 e1 ee 69 3c 9a 3c 89 3b c4 23 e5 bc e7 c5 3f 3d
       0.014278145 0.0041881325 -0.027971156 0.046819594
0000f0 0c 6c 4a 3d c3 82 69 bd b8 52 41 3d e7 61 1f 3d
       0.049419448 -0.05700947 0.047198027 0.038911726
000100 6e 30 16 ba 1a e4 92 3c c2 34 1b bd bf ad 63 3d
       -0.00057292625 0.017931033 -0.03789211 0.05558562
000110 3e 82 32 bd 9d c6 0d 3d a4 aa d3 bc a6 88 95 bc
       -0.04358124 0.03461324 -0.025838204 -0.018253636
000120 73 54 78 bc 64 8e 72 bd 3c f1 b3 3c 66 89 ca bc
       -0.015156853 -0.059217826 0.021965615 -0.02472372
000130 40 e2 36 bd cc 5f d9 3b f2 2b 84 bc ab 7e a9 3c
       -0.044649363 0.0066337343 -0.016134236 0.020690283
000140 34 c6 58 bd c3 0e 38 bd 2f 0d 8c 3c 78 4c 0c bd
       -0.052923396 -0.044935953 0.01709613 -0.034252614
000150 67 f4 4d bd 7a 28 5c 3a f0 38 e8 bc f8 fe fb 3c
       -0.05028191 0.00083983655 -0.028347462 0.030761227
000160 42 18 17 3d 8b 67 68 bc 3e df 5d 3d fe c0 0c 3d
       0.03688837 -0.014184843 0.05416798 0.03436374
000170 f0 22 d5 3c 40 05 3e bc f8 2c 54 bc 88 96 f7 bc
       0.026017636 -0.011597931 -0.0129501745 -0.030223146
000180 99 90 09 bd 9f 60 6b bd 02 23 0d 3d ba 38 4a 3d
       -0.033585165 -0.057465192 0.034457214 0.049370505
000190 4a 17 3f bd 67 58 4f 3d ad 72 70 bd bc ea 0f 3d
       -0.04665307 0.050621416 -0.058703113 0.03513597
0001a0 22 b9 49 3d f0 53 ab bc 8c 19 09 bc c2 ae b2 bc
       0.049248822 -0.020914048 -0.008367907 -0.021811847
0001b0 26 d5 58 bd 0b 7c 8d 3c 55 06 5d bd 13 eb db bb
       -0.05293765 0.017271062 -0.053961117 -0.0067113726
0001c0 68 6d 3d 3d b6 a6 02 3d 7a 0c 6f bd db e4 a2 3b
       0.046246916 0.03189727 -0.058361508 0.0049711294
0001d0 fb 89 9b bc ea a4 2a bd 0f 00 41 3d 3a e8 04 bd
       -0.018986693 -0.04166118 0.047119197 -0.03244803
0001e0 df f0 e0 bc 9d eb 27 bd 9c 7f 5d bd f0 a7 cc bc
       -0.027458606 -0.040996183 -0.054076776 -0.024982423
0001f0 bb 79 5e 3d dc c4 34 3c 1c ce 31 bc 8e b3 0a 3c
       0.05431531 0.011033263 -0.010852363 0.008465661
000200 5d 60 95 bc 81 c8 44 bd 0c 9e f9 bc 4e 49 25 3a
       -0.018234426 -0.048042778 -0.03047087 0.0006305174
000210 6f ab 2f bc 3a 26 59 3d 75 b6 65 3c 58 37 31 3b
       -0.010722025 0.05301497 0.014020552 0.0027041044
000220 6d 74 4f 3d 87 40 14 bd 5b 3b 49 3d 84 1f 95 3c
       0.05064814 -0.03619435 0.04912887 0.018203504
000230 17 90 5c ba 02 f5 40 bd 5e 04 39 bd f2 e4 38 bd
       -0.0008413805 -0.047108658 -0.04517018 -0.045140214
000240 63 aa 6e 3b d7 6e 1c bd 1b 99 4a 3d 7e 00 35 3d
       0.0036417476 -0.038191643 0.04946242 0.044189923
000250 9b c5 27 bc 1c 98 b1 bc 94 17 80 bc 12 73 2f bb
       -0.010239984 -0.021678977 -0.015636243 -0.0026771468
000260 dc fc 28 bd df 6c 5f 3d 0a 89 43 3d 74 a2 5e bd
       -0.04125677 0.054547187 0.047738113 -0.054354146
000270 4a aa 36 bd 42 8c 22 bc a5 59 6a bc 47 a7 0a bd
       -0.044595994 -0.009921135 -0.0143035995 -0.033850934
000280 3d 41 af bc 13 0e 11 3d 51 03 d3 3c 7a 4b 5e bc
       -0.021393413 0.035413813 0.025758417 -0.0135678
000290 24 6f 0c 3c b6 94 41 bd 5a 38 62 bc 97 45 ef bb
       0.00857142 -0.047260962 -0.013807381 -0.007301997
0002a0 bc ad 0a bc c5 c5 32 3d 9a 7f be 3c 2d 1f d3 bb
       -0.008464273 0.04364564 0.023254205 -0.0064429254
0002b0 0b c1 5f bc c0 1c 40 3d d4 5a 4b 3d cf 63 82 3c
       -0.013656865 0.046902418 0.049647167 0.015916733
0002c0 f1 d0 a2 bc 7a 98 2a 3c c1 bf 06 3d 0f af 06 3c
       -0.019875022 0.01041233 0.032897715 0.008220448
0002d0 06 8c 20 3d 2d 44 0e bd 1c d8 d2 3c 09 0b da bc
       0.039196037 -0.034732986 0.025737815 -0.02661659
0002e0 17 4d a7 bc 75 22 8e bb 60 57 67 3c fc 00 3a 3b
       -0.020422501 -0.0043376037 0.014119953 0.0028381934
0002f0 c4 97 12 bc c7 e7 47 3d ca f2 bd 3c ef d5 be bc
       -0.008947317 0.048805024 0.02318706 -0.02329537
000300 1f b8 8e 3c e1 b0 39 3d 0f d9 6a bd ab f5 0e bd
       0.01742178 0.0453347 -0.05733591 -0.034902256
000310 30 a8 bd bc ab 12 1b bd 3f 4d b8 bc c3 4d 4f 3d
       -0.023151487 -0.0378596 -0.022497771 0.05061127
000320 fa b3 19 3d b2 63 a6 ba 77 08 4e bc e5 9b e0 bb
       0.037525155 -0.0012694506 -0.01257526 -0.0068545216
000330 06 01 59 3d 81 2a 30 3d 7c 4f 04 3d fb 27 e7 bc
       0.05297949 0.043009285 0.032302365 -0.028217306
000340 33 ec 6f bc ab 37 30 3d 09 a1 4f bd 69 6d 26 3d
       -0.014643717 0.04302184 -0.050690684 0.040631685
000350 1e 06 e7 3c 97 0e 96 bc 12 e8 74 bd 57 bc 71 bd
       0.02820116 -0.018317504 -0.059791632 -0.059017505
000360 45 b2 23 3d 1f 3e 0b 3d 27 f5 00 bc 02 0a 71 bc
       0.039964933 0.03399479 -0.007870949 -0.014711859
000370 67 0d 6f bd 46 4d 0a bb 4c d0 67 bd cd 4a fc bc
       -0.05836239 -0.0021103187 -0.05659513 -0.030797387
000380 f9 46 6d bd 98 30 25 3b 7a 66 91 bb 1f 82 32 3d
       -0.057929013 0.0025205966 -0.004437265 0.043581124
000390 57 78 fe 3c 7a ff 14 bc 4a 10 99 3b 68 36 ee bb
       0.031063242 -0.0090941135 0.0046711313 -0.0072696693
0003a0 be bd d7 ba 1b 4f e5 3c e6 8e 5b bd ff 1c b7 bc
       -0.0016459746 0.027991822 -0.053603075 -0.022352694
0003b0 77 74 4f 3d 42 96 24 bd 48 0a 66 bd 2c 3d f6 bc
       0.05064818 -0.04018236 -0.05616215 -0.030058466
0003c0 42 20 46 bc 51 d7 4e 3d 7c 41 27 3d 44 80 fe 3b
       -0.012092652 0.05049831 0.040833935 0.0077667553
0003d0 e0 57 7e 3b 4b ca 43 3d 28 65 37 bd a4 29 67 bb
       0.0038809702 0.047800343 -0.044774204 -0.0035272622
0003e0 5b 94 30 bd 8d 69 c5 bc 5c 5a 92 3c f9 6d b8 3b
       -0.043110233 -0.024098182 0.017865352 0.005628344
0003f0 39 63 f4 3c 54 8b 45 bd 8d 9a 8b bc f7 6b 30 3d
       0.02983247 -0.048228577 -0.017041469 0.043071713

conv3.bias f4 [64]
000000 1e 72 3d bd 87 f8 33 3d 20 58 53 3c a0 5f 00 b8
       -0.04625141 0.043938186 0.012899429 -3.0606636e-05
000010 e6 0b 00 3b 59 b2 62 3c d4 cb 64 3d 05 1b b2 bc
       0.0019538342 0.013836467 0.05585845 -0.0217414
000020 e9 89 59 bd 87 0b 0a 3d 2e b9 5a 3d 4c 19 2f bc
       -0.053110037 0.0337024 0.053399257 -0.010687184
000030 04 23 14 bb 42 27 04 3c f9 fa 01 bd fa ec 53 3d
       -0.0022603879 0.008066 -0.031733487 0.05173967
000040 31 df 88 3c fd af 38 3d 74 7a 50 3d fa ed 23 bd
       0.016707988 0.04508971 0.05089803 -0.040021874
000050 ae e0 9a bc 43 78 cd bc c6 de 0d 3d 4e 92 8d 3b
       -0.018905964 -0.02508176 0.03463628 0.0043204194
000060 92 92 2b bc 54 49 e7 bc c3 0f 5b bd 18 34 35 bd
       -0.010471957 -0.028233208 -0.05348183 -0.044239134
000070 8e 1c 3e 3d 4b c3 55 3d 1d 2a b5 bc 93 e9 e9 39
       0.04641395 0.0521882 -0.022114808 0.0004461525
000080 91 a9 be bc 6d 90 15 3d 2e a0 a8 bb 6d 4f 40 bd
       -0.023274215 0.03651469 -0.005146048 -0.046950746
000090 08 e2 9a 3b 65 9a af ba f3 6b 8d bb 1c ba 63 3c
       0.004726652 -0.0013397454 -0.004315847 0.013899352
0000a0 47 20 8f 3b bb b5 33 3d 73 1c 4e 3d 10 b5 b0 bb
       0.0043678614 0.043874484 0.0503201 -0.005392678
0000b0 89 ce 33 bd ab 43 8e bc be 02 b1 3c 4e b2 e8 bc
       -0.04389814 -0.017366251 0.021607753 -0.028405335
0000c0 d4 89 22 bd 84 b7 3e ba a0 f2 b8 bc f8 f3 c0 bc
       -0.039682224 -0.0007275271 -0.02257663 -0.023553833
0000d0 36 4c 19 bd 4b 08 61 3d d1 5c cc 3c 53 7c 20 bd
       -0.037426196 0.05493955 0.024946602 -0.039181065
0000e0 95 f1 3d 3d 94 37 6b 3d 6b c3 a2 bc 33 77 41 3b
       0.04637297 0.05742605 -0.019868573 0.002952051
0000f0 a2 01 2d bd 01 a7 c2 bc 55 79 04 bd c4 d8 16 3d
       -0.042237885 -0.023761274 -0.032342274 0.036827818

fc_cls.weight f4 [2, 16384]
000000 90 04 87 ba 44 cc 07 bb 20 b7 89 39 d2 3e 9a 3b
       -0.0010301042 -0.0020721117 0.00026267115 0.004707196
000010 0a 7e c2 bb 40 86 e7 b9 d0 49 8e ba 44 88 af 3b
       -0.005935435 -0.00044159777 -0.0010855738 0.0053568203
000020 08 c3 bf bb e0 60 9e b9 a6 7b c3 3b 90 97 5d bb
       -0.005852107 -0.00030208286 0.005965668 -0.0033812262
000030 c8 ea c4 ba 60 bd 2c bb e0 9f 65 3b 0c 7c 5f bb
       -0.0015023584 -0.0026357993 0.003503792 -0.0034101037
000040 d4 fd c3 bb 3c f6 d8 3b 60 64 a6 ba 6e 17 c6 bb
       -0.0059811864 0.0066211503 -0.0012694709 -0.0060452735
000050 08 9f fa bb ac 68 8f bb e4 ce e3 bb 96 92 d8 3b
       -0.0076483525 -0.0043764915 -0.0069521535 0.0066092713
000060 f8 8a 81 ba 30 ca 9c 3a 60 2a de 3a 98 b7 f5 bb
       -0.0009883335 0.0011962112 0.0016949885 -0.0074986927
000070 90 41 9d bb 00 c6 2e bb c0 3d 22 bb e6 89 b9 bb
       -0.0047990754 -0.002666831 -0.0024756044 -0.0056621907
000080 28 9d 46 3b 12 65 a9 bb c8 b8 c8 3a 78 c6 9a bb
       0.0030306075 -0.005169519 0.0015313858 -0.0047233663
000090 d8 c5 4f bb 48 ab cd bb 8e d2 b2 bb 48 b7 97 3a
       -0.0031703617 -0.006276522 -0.005457229 0.0011575008
0000a0 de 86 a6 bb b0 cb 75 3b 0e b5 c4 bb 96 c2 f3 bb
       -0.0050819954 0.003750544 -0.0060030287 -0.007438968
0000b0 08 7c 66 bb ad 5f dc 3b 80 fa a1 bb b0 8e 75 3b
       -0.0035169143 0.0067252726 -0.004943192 0.0037469082
0000c0 18 04 3a 3b a8 88 31 3b e2 6d a0 3b 68 cd 51 bb
       0.0028383788 0.002708951 0.0048959116 -0.00320133
0000d0 ed d3 50 3b b8 93 b3 3b a0 9a 61 bb 1c cb 09 bb
       0.00318646 0.005480256 -0.003442444 -0.0021025604
0000e0 80 25 7f bb 06 6f a6 3b ec 3c 56 3b c8 19 df ba
       -0.0038932264 0.005079153 0.003269012 -0.0017021233
0000f0 14 e7 c3 3b f4 7a 92 bb 2c 45 c0 bb 00 92 cc 37
       0.0059784744 -0.0044702236 -0.005867621 2.4386682e-05
000100 da ef 9e bb 38 bd bc 3b 15 5e a8 3a a2 c6 cc 3b
       -0.00485037 0.0057598613 0.0012845421 0.006249265
000110 56 f2 d2 bb 60 77 0c ba 88 18 ad 3a a4 33 16 bb
       -0.00643758 -0.00053583644 0.0013206163 -0.0022918964
000120 48 ee 38 bb 20 6e f4 ba 74 83 ff ba 8a fc ed bb
       -0.0028218199 -0.0018648542 -0.0019494132 -0.007262771
000130 64 6b c0 3b 16 f9 8d bb 7c f5 06 bb a4 32 00 3b
       0.005872177 -0.004332672 -0.0020593097 0.0019561434
000140 8a e2 dd 3b 70 1d 01 ba e2 57 b1 3b 4e c5 d2 3b
       0.0067713903 -0.0004925346 0.005412088 0.006432212
000150 00 8c 7a b7 12 79 a5 bb d0 70 ac ba 88 c1 2a bb
       -1.49337575e-05 -0.005049833 -0.0013156179 -0.0026055295
000160 68 bf 24 bb b0 82 bf 3a 74 f0 47 3b 92 43 e4 bb
       -0.00251385 0.0014611091 0.0030508311 -0.006966063
000170 70 4c 6c bb 30 95 49 ba 00 df bc 39 ec 1c 7d 3b
       -0.0036056302 -0.0007689772 0.00036024302 0.0038621975
000180 52 f7 f6 3b 3a 48 f8 bb 34 44 ea bb 14 20 f8 3b
       0.007536807 -0.0075769695 -0.0071492437 0.0075721834
000190 90 ff 5c bb 9a e1 82 3b ec 1d 9a bb 54 fe f3 3b
       -0.0033721663 0.003994179 -0.004703274 0.0074460898
0001a0 fa 13 cf bb c8 d3 07 3b ec 6e 6f bb 04 7f 9b 3b
       -0.00631952 0.0020725597 -0.003653462 0.004745366
0001b0 88 ba 9a 3b e8 f4 22 bb bc 2f 7f bb a4 10 d0 bb
       0.0047219433 -0.0024865214 -0.0038938364 -0.00634964
0001c0 0c 2e 6d bb 1c d7 0e bb 7c da 11 3b 12 d7 b0 3b
       -0.0036190776 -0.0021795696 0.002225547 0.005396732
0001d0 4a 36 13 bb c0 82 4f bb d6 91 cb 3b 0c c9 51 3b
       -0.0022462779 -0.0031663626 0.0062124534 0.0032010702
0001e0 2a ec ed 3b 60 b6 c5 3b 00 f0 a1 bb e0 96 4d 3b
       0.007260819 0.0060337037 -0.0049419403 0.0031370446
0001f0 9a d8 bd 3b d0 6f 72 3b 7e d4 e9 3b 3c ee 04 3b
       0.005793643 0.0036992915 0.0071359267 0.00202836
000200 b6 52 8c bb 38 15 b1 3b cc 33 c3 bb 2e 8f 66 bb
       -0.004282321 0.005404141 -0.0059571024 -0.0035180557
000210 70 ae 2f ba 18 56 cb ba a0 83 8f b9 34 4e 46 bb
       -0.00067017134 -0.0015513329 -0.00027373154 -0.0030259015
000220 20 5e a5 bb 48 87 89 3b f0 77 f8 ba 46 e6 83 3b
       -0.005046621 0.004197035 -0.0018956643 0.0040252535
000230 e4 fc 67 3b ae 7d 86 3b 70 50 d3 ba 40 87 0e ba
       0.0035398537 0.0041043377 -0.0016121995 -0.0005437024
000240 aa 6b d3 bb a4 7f e7 bb 20 ce 7d 3b ca 2a ae bb
       -0.0064520435 -0.0070647765 0.0038727596 -0.0053151594
000250 8a 07 9f 3b c8 da 83 bb 98 46 dc ba 70 e9 a4 3a
       0.0048531936 -0.0040238835 -0.0016805707 0.0012581777
000260 c4 82 d6 bb 82 69 a5 bb 64 33 6e 3b 78 29 f6 ba
       -0.00654635 -0.005047978 0.003634655 -0.0018780669
000270 b8 77 f7 bb 40 33 47 ba 0e 78 f6 3b d4 00 0a 3b
       -0.0075521134 -0.00075988844 0.007521636 0.0021057623
000280 20 4e d3 bb c0 25 4a 39 f4 c4 48 bb 98 4a a5 ba
       -0.006448522 0.00019278284 -0.0030634971 -0.0012610732
000290 c4 28 b5 bb 68 29 eb 3a c8 43 fe 3b 16 94 c9 bb
       -0.0055285413 0.0017941417 0.007759545 -0.0061516864
0002a0 1a aa 90 bb 28 49 8d 3b 28 66 b4 ba 18 12 6a 3b
       -0.004414809 0.0043116994 -0.0013763355 0.003571635
0002b0 3e 50 d9 bb da e2 d5 3b 04 12 3b bb 70 81 b6 3b
       -0.00663188 0.006527287 -0.0028544674 0.0055696294
0002c0 26 10 8d bb 84 bf 34 bb 42 c9 a2 3b 80 f2 4d ba
       -0.0043049036 -0.0027579973 0.0049678395 -0.0007856265
0002d0 7c dd 1d 3b b8 06 25 bb 06 21 06 3c 08 e0 9a ba
       0.0024088314 -0.0025181007 0.008186584 -0.0011816034
0002e0 00 f9 a0 39 62 c2 cd bb 00 1e d7 b8 f4 18 e1 3b
       0.00030703098 -0.0062792758 -0.00010257587 0.0068694297
0002f0 c0 1a a9 39 88 9d 3e bb 1c ca 15 bb 88 24 d6 3a
       0.00032254122 -0.0029085595 -0.0022856062 0.0016337791
000300 98 27 d9 3b 08 aa a8 ba 64 b0 75 3b 14 64 03 3b
       0.0066270344 -0.0012868056 0.003748917 0.0020048665
000310 08 6f 8a ba e8 ba 14 3b ae 90 81 3b b8 96 11 3b
       -0.0010561654 0.0022694413 0.0039540147 0.002221508
000320 28 f9 37 3b ec 2e 95 bb 20 eb 91 39 14 29 ff 3b
       0.0028072093 -0.0045527127 0.00027831737 0.0077868793
000330 94 d8 f1 3b 48 69 e5 3a 5c 60 3d bb 20 87 8d b9
       0.0073805545 0.001750269 -0.0028896546 -0.00026994292
000340 6c 40 fb bb 48 7f 93 3b e4 57 ea 3b 10 65 a1 3b
       -0.007667592 0.004501257 0.0071515907 0.0049253777
000350 84 89 2a bb 00 e3 37 b9 44 94 05 3b 50 bb 6f bb
       -0.0026021907 -0.00017536804 0.0020382563 -0.0036580153
000360 1a 4a ff 3b c0 2c c9 bb fa 08 a2 3b 38 dc 61 ba
       0.007790816 -0.006139368 0.0049449177 -0.0008615884
000370 34 86 1a 3b 91 fc c8 bb 9c 73 4d 3b 80 14 fa 38
       0.0023578526 -0.006133624 0.0031349426 0.000119247474
000380 3a 98 d0 bb ea 6f df bb a8 d4 9d 3b 40 6f ea b9
       -0.006365803 -0.006818761 0.0048166104 -0.00044714846
000390 be b9 60 bb dc e2 cd 3b 08 c7 b9 3a 30 49 45 3b
       -0.0034290398 0.0062831473 0.0014173696 0.0030103438
0003a0 50 a2 eb 3b c4 da 27 3b a2 d7 8a 3b 78 ea 30 bb
       0.00719098 0.0025612572 0.004237131 -0.0026995223
0003b0 04 cf 6c bb 4c 8f cc bb 58 f0 50 3b 88 5a d4 3a
       -0.0036134133 -0.0062426683 0.0031881537 0.0016201297
0003c0 42 5f 97 3b 5e f4 ef bb 00 34 cb bb 80 3c ce ba
       0.00461951 -0.007322832 -0.0062012672 -0.0015734583
0003d0 0c 30 f5 bb 18 03 24 bb 3a e4 bf bb c0 75 72 39
       -0.0074825343 -0.0025026258 -0.005856064 0.00023122784
0003e0 98 5d b8 ba 8c b4 ee bb 1e 0f e1 3b 3a f3 9a 3b
       -0.0014065979 -0.0072847065 0.006868257 0.004728702
0003f0 08 a3 c7 ba 42 ce ec 3b 28 dd 18 bb 96 5f e7 3b
       -0.0015231082 0.0072267363 -0.0023325179 0.0070609553

fc_cls.bias f4 [2]
000000 0d 56 d6 bb 72 30 45 bb
       -0.00654102 -0.003008869

fc_bb.weight f4 [4, 16384]
000000 70 d5 79 3b 50 9f 81 3a 32 63 e7 bb f8 b2 46 bb
       0.0038121603 0.0009889398 -0.0070613855 -0.0030319076
000010 f9 39 f7 ba 32 05 bd 3b 5a 66 b5 3b 00 50 4a 38
       -0.0018861882 0.0057684416 0.005535883 4.823506e-05
000020 20 0d b3 bb 38 5a b8 bb 6e 2e ad bb 88 a6 af bb
       -0.005464211 -0.0056259893 -0.005285076 -0.0053604282
000030 94 c4 c6 3b 8c 05 4c 3b b4 fb 6d 3b 4c 15 17 3b
       0.0060659144 0.0031131236 0.0036313357 0.0023053465
000040 1c c1 b9 bb 8e ef a3 bb ea 7e 89 3b 00 73 c6 3a
       -0.0056687724 -0.0050029224 0.0041960375 0.0015140474
000050 3c ef f7 bb 80 1c cb bb 96 d9 83 bb dc 9f 57 bb
       -0.0075663608 -0.006198466 -0.004023741 -0.003290168
000060 b0 ef 98 ba 90 0d 0d bb 00 ae 62 38 80 74 66 ba
       -0.0011668112 -0.0021522976 5.404465e-05 -0.00087911636
000070 16 ed de bb c8 89 21 3b 04 a9 93 bb 9c ae a1 bb
       -0.006803165 0.0024648774 -0.004506232 -0.004934145
000080 d2 8a 95 3b 44 24 37 3b 58 2e 14 bb 54 8c a7 3b
       0.004563668 0.00279452 -0.002261063 0.005113164
000090 8e 9d ea bb f0 ad dd 3b 7c 03 ee bb 24 51 78 bb
       -0.0071598953 0.0067651197 -0.007263599 -0.003789016
0000a0 7c 68 fb 3b 08 80 85 bb 70 ff d6 ba 7c d7 a2 bb
       0.0076723676 -0.0040741004 -0.0016403031 -0.0049695354
0000b0 d6 45 e8 bb 41 4c 99 3b a8 06 a9 3b 10 b6 d9 3a
       -0.007088403 0.0046782796 0.005158264 0.0016610045
0000c0 60 50 6f bb e0 0d e1 ba 40 3c 36 ba 7c 91 39 bb
       -0.0036516413 -0.0017170273 -0.0006951727 -0.0028315475
0000d0 ff eb e5 3b 90 78 3e 3b b8 e7 e0 3a 5a 8e 85 bb
       0.0070166583 0.002906356 0.0017158901 -0.0040758075
0000e0 96 3b b4 3b d4 00 2c 3b b0 1e 60 3b ac b2 be bb
       0.0055002673 0.002624561 0.0034197979 -0.005819639
0000f0 80 8d 45 ba aa 15 ee 3b e8 7a 2d bb e0 54 a1 39
       -0.0007536039 0.007265766 -0.0026470963 0.0003077155
000100 34 b0 23 bb 90 10 e2 bb 01 56 9d 3b b2 75 dc bb
       -0.0024976851 -0.006898947 0.004801512 -0.0067278976
000110 f6 34 8a 3b 1e 1e d1 bb fc 74 ad 3b 6c 15 b2 bb
       0.004217739 -0.006381764 0.0052934866 -0.0054346826
000120 49 fb 80 3a c8 fc 3f 3b 6a ea c6 bb f8 05 14 3b
       0.0009840514 0.0029294956 -0.006070425 0.0022586565
000130 1a 27 c9 3a 88 2b 7f bb 68 9d ef 3b 7c b1 a3 bb
       0.0015346736 -0.0038935859 0.0073124655 -0.004995523
000140 ab aa 07 3c 78 56 93 3a 80 01 e0 b8 e0 f8 09 bb
       0.0082804365 0.001124098 -0.00010681432 -0.0021052882
000150 cc bf 2f bb c0 aa e7 b9 e4 d7 95 bb 08 e2 e3 3a
       -0.00268172 -0.00044186972 -0.0045728553 0.0017386088
000160 06 03 fd 3b d4 0c cd bb 9c 5f 30 bb 70 cc 01 ba
       0.0077213077 -0.0062576327 -0.0026912456 -0.0004951423
000170 f0 d9 c0 3b b0 3d 10 ba 90 da 2f bb 5c a1 b7 bb
       0.005885355 -0.0005502356 -0.0026833154 -0.0056039523
000180 b6 7e cd bb 40 c5 c9 b9 c2 39 f6 3b f0 f1 a1 3a
       -0.0062712086 -0.0003848467 0.0075142095 0.0012355428
000190 00 35 1f 38 a8 ae 2e 3b 48 12 f7 39 2a 32 e7 3b
       3.7957914e-05 0.0026654396 0.00047125132 0.0070555406
0001a0 5e 54 ee bb 2c 96 0c 3b 90 92 4b ba 86 d4 83 bb
       -0.007273241 0.0021451814 -0.0007765675 -0.0040231375
0001b0 26 98 c9 bb 00 e4 05 37 4a 7d c3 3b 40 96 32 b9
       -0.0061521707 7.980503e-06 0.0059658634 -0.00017031375
0001c0 06 42 a6 3b 0c 17 0b 3b c8 74 90 ba 66 91 fe bb
       0.0050737886 0.0021223454 -0.0011021132 -0.0077687977
0001d0 7a 13 59 3b fc f6 b7 3b f0 ae 7c 3a ec 3d 1d bb
       0.0033123181 0.0056141596 0.0009639105 -0.0023993207
0001e0 ae 88 d4 bb 20 14 e4 39 1e f2 c4 bb 1c 52 c6 bb
       -0.00648602 0.00043502543 -0.006010308 -0.0060522687
0001f0 c0 cf e3 39 38 16 d5 bb 28 4b da ba b0 87 9d 3b
       0.000434516 -0.006502893 -0.0016654478 0.004807435
000200 98 b9 e6 3b a8 09 c3 3a 34 51 8d 3b ab 32 83 3b
       0.0070411675 0.0014880197 0.0043126587 0.004003843
000210 06 21 f3 bb 1c 9f d1 bb b8 ff f4 bb cc 26 ab 3b
       -0.007419708 -0.006397141 -0.007476773 0.005223131
000220 4e 2b d4 3b a2 1a a0 bb 0e a6 b0 3b ac ab 6b bb
       0.006474889 -0.0048859874 0.005390889 -0.0035960479
000230 5a 3b af bb d4 0c 93 3b ae 87 95 bb 5e 0a c7 3b
       -0.0053476514 0.004487613 -0.0045632934 0.006074234
000240 ca a8 96 bb 72 d0 8a 3b c0 92 28 b9 70 ed 06 3a
       -0.004597758 0.0042362744 -0.00016076397 0.0005147075
000250 00 55 db bb 92 d6 93 bb 2a 3b 86 3b 14 a0 ed bb
       -0.0066934824 -0.0045116628 0.0040964084 -0.007251749
000260 fe ac f3 3b 5e 19 89 bb d8 0f 8b bb 24 f7 92 bb
       0.0074363938 -0.004183932 -0.004243832 -0.004485028
000270 6e 8f c1 3b f0 d1 2e ba 1e ca c7 bb c4 3a 16 3b
       0.0059069907 -0.00066688564 -0.0060970923 0.002292321
000280 5f 2e 99 3b 04 2e 9b 3b fc a2 16 3b 0a a6 88 3b
       0.0046747173 0.00473571 0.002298533 0.004170184
000290 a0 51 56 ba d8 da 06 bb a0 07 8e 39 cc 40 00 3b
       -0.0008175615 -0.0020577218 0.00027090032 0.0019569872
0002a0 ec 58 3d bb f8 68 e4 3b 1c ba 1e bb 3c c7 0f 3b
       -0.0028892113 0.006970521 -0.0024219817 0.0021938821
0002b0 20 cf 93 b9 80 ef e2 b8 e6 b4 a0 bb 12 4e 8a 3b
       -0.00028192345 -0.0001082113 -0.0049043773 0.0042207325
0002c0 0e f6 eb bb aa 66 90 3b fc 21 a7 bb cc eb 2d 3b
       -0.007200963 0.0044067698 -0.005100487 0.002653825
0002d0 02 3c c5 bb 18 86 8e ba 52 ed c7 3b 40 e2 0e 3b
       -0.0060191164 -0.0010873703 0.006101289 0.0021802336
0002e0 02 8e 90 3b 90 e0 c2 bb a8 45 ef 3a b8 c4 fb 3b
       0.00441146 -0.00594718 0.0018255012 0.007683363
0002f0 a6 ba e9 bb cc 40 6f 3b e0 c0 89 b9 80 0d 84 3b
       -0.007132846 0.0036507128 -0.0002627438 0.0040299296
000300 00 1a e6 39 10 62 59 ba 58 69 d4 bb 74 8b ee bb
       0.0004388839 -0.00082925055 -0.0064822845 -0.0072798077
000310 34 32 c4 bb b0 a6 8f 3a 38 ce 4f bb 44 01 c7 bb
       -0.00598743 0.0010959711 -0.003170861 -0.006073149
000320 58 d9 b1 3a 08 c4 33 bb c0 ff 40 3a 90 98 f6 3a
       0.0013568802 -0.0027430076 0.00073623285 0.0018813778
000330 1c 28 47 3b 98 88 c1 3b 00 3e d6 b8 70 0d 8d ba
       0.0030388897 0.005906176 -0.000102158636 -0.0010761451
000340 42 86 d8 bb 4f 6f fc 3b d0 73 e8 3a a3 2c cf 3b
       -0.0066078017 0.0077036987 0.001773471 0.00632246
000350 66 56 9b 3b 20 4c 8a 3b d0 31 8b ba 50 84 2d ba
       0.004740524 0.0042205006 -0.0010619704 -0.00066191424
000360 66 9e da bb ac 24 ab 3b 38 aa 50 bb da 56 7d bb
       -0.0066717146 0.0052228775 -0.003183974 -0.0038656504
000370 d2 ed ca bb 02 19 d4 3b 30 56 1e ba 40 0b 27 3b
       -0.006192901 0.0064727077 -0.00060400646 0.0025488883
000380 d0 57 0a ba 1c 40 01 3b 46 c0 e8 3b f4 58 59 3b
       -0.00052773673 0.001972205 0.007102999 0.0033164592
000390 26 fe cb 3a 38 0e b3 bb ea 9b 80 3b d8 da 96 bb
       0.0015563413 -0.0054643415 0.0039248364 -0.004603725
0003a0 78 e6 53 3b 90 29 cb bb 6a 79 a2 bb a0 51 fc ba
       0.0032333415 -0.006200023 -0.0049583213 -0.00192504
0003b0 00 f8 94 3a 84 9e 49 3b 00 e4 b2 3b d8 af b1 bb
       0.0011365414 0.0030764649 0.0054593086 -0.0054225735
0003c0 40 01 9f 3a b0 6a 6e bb 70 d1 be bb 2e 7f dc 3b
       0.001213111 -0.0036379509 -0.0058233067 0.006729028
0003d0 e0 64 11 3b 24 24 32 bb 38 07 a3 3a 00 8b 6f 38
       0.002218537 -0.0027182186 0.0012438064 5.7111494e-05
0003e0 c0 53 42 bb 72 31 ba 3b f0 22 c7 3a 8a 4c d6 3b
       -0.002965197 0.005682164 0.0015192907 0.006539886
0003f0 00 18 be b6 c8 b2 e5 3a 62 13 e8 bb 50 1d 01 ba
       -5.665235e-06 0.0017524594 -0.0070823887 -0.00049253274

fc_bb.bias f4 [4]
000000 86 1a 56 ba 41 69 0c 3b ae 03 c7 bb 1e ff 33 3b
       -0.00081674044 0.002142504 -0.0060734367 0.0027465294
